…
Loss function:  cross_entropy
=====> Class weights: tensor([0.7894, 0.1000, 0.1000, 0.5515, 0.9862, 0.9268])
============================== Model initialized ==============================
========================================================================================================================
Layer (type:depth-idx)                                                 Output Shape              Param #
========================================================================================================================
LitGIBLi                                                               [1, 10000, 6]             --
├─GIBLiNet: 1-1                                                        [1, 10000, 6]             --
│    └─BuildGraphPyramid: 2-1                                          [1, 10000, 12]            --
│    └─ModuleList: 2-6                                                 --                        (recursive)
│    │    └─GIB_Sequence: 3-1                                          [1, 10000, 16]            124
│    └─ModuleList: 2-5                                                 --                        (recursive)
│    │    └─GIB_Sequence: 3-2                                          [1, 5000, 16]             332
│    └─ModuleList: 2-6                                                 --                        (recursive)
│    │    └─GIB_Sequence: 3-3                                          [1, 5000, 32]             1,784
│    └─ModuleList: 2-5                                                 --                        (recursive)
│    │    └─GIB_Sequence: 3-4                                          [1, 2500, 32]             2,296
│    └─ModuleList: 2-6                                                 --                        (recursive)
│    │    └─GIB_Sequence: 3-5                                          [1, 2500, 48]             6,660
│    └─ModuleList: 2-7                                                 --                        --
│    │    └─Decoder: 3-6                                               [1, 5000, 32]             6,072
│    │    └─Decoder: 3-7                                               [1, 10000, 16]            1,452
│    └─Sequential: 2-8                                                 [1, 10000, 6]             --
│    │    └─Linear: 3-8                                                [1, 10000, 16]            272
│    │    └─PointBatchNorm: 3-9                                        [1, 10000, 16]            32
│    │    └─ReLU: 3-10                                                 [1, 10000, 16]            --
│    │    └─Linear: 3-11                                               [1, 10000, 6]             102
========================================================================================================================
Total params: 19,126
Trainable params: 19,126
Non-trainable params: 0
Total mult-adds (M): 0.02
========================================================================================================================
Input size (MB): 0.12
Forward/backward pass size (MB): 40.54
Params size (MB): 0.08
…
